…
              (grid_conv): MinkowskiConvolution(in=64, out=128, kernel_size=[5, 5, 5], stride=[1, 1, 1], dilation=[1, 1, 1])
              (grid_bn): MinkowskiBatchNorm(128, eps=1e-05, momentum=0.1, affine=True, track_running_stats=True)
              (grid_relu): MinkowskiELU()
              (pooling_conv): MinkowskiConvolution(in=128, out=128, kernel_size=[7, 7, 7], stride=[1, 1, 1], dilation=[1, 1, 1])
              (pooling_bn): MinkowskiBatchNorm(128, eps=1e-05, momentum=0.1, affine=True, track_running_stats=True)
            )
          )
          (reg_fc_layers): Sequential(
            (0): Linear(in_features=128, out_features=256, bias=False)
            (1): BatchNorm1d(256, eps=1e-05, momentum=0.1, affine=True, track_running_stats=True)
            (2): ReLU()
            (3): Dropout(p=0.3, inplace=False)
            (4): Linear(in_features=256, out_features=256, bias=False)
            (5): BatchNorm1d(256, eps=1e-05, momentum=0.1, affine=True, track_running_stats=True)
            (6): ReLU()
          )
          (reg_pred_layer): Linear(in_features=256, out_features=6, bias=True)
        )
      )
    )
    (skip_propagation): SkipPropagation(
      (stn): STN_Group(
        (grouper): QueryAndGroup()
        (stn3d): STN3d(
          (conv1): Conv1d(3, 64, kernel_size=(1,), stride=(1,))
          (conv2): Conv1d(64, 128, kernel_size=(1,), stride=(1,))
          (conv3): Conv1d(128, 256, kernel_size=(1,), stride=(1,))
          (mp1): MaxPool1d(kernel_size=1024, stride=1024, padding=0, dilation=1, ceil_mode=False)
          (fc1): Linear(in_features=256, out_features=128, bias=True)
          (fc2): Linear(in_features=128, out_features=64, bias=True)
          (fc3): Linear(in_features=64, out_features=12, bias=True)
          (relu): ReLU(inplace=True)
          (bn1): BatchNorm1d(64, eps=1e-05, momentum=0.1, affine=True, track_running_stats=True)
          (bn2): BatchNorm1d(128, eps=1e-05, momentum=0.1, affine=True, track_running_stats=True)
          (bn3): BatchNorm1d(256, eps=1e-05, momentum=0.1, affine=True, track_running_stats=True)
          (bn4): BatchNorm1d(128, eps=1e-05, momentum=0.1, affine=True, track_running_stats=True)
          (bn5): BatchNorm1d(64, eps=1e-05, momentum=0.1, affine=True, track_running_stats=True)
        )
      )
      (encoder): ResnetPointnet(
        (fc_pos): Linear(in_features=134, out_features=1024, bias=True)
        (block_0): ResnetBlockFC(
          (fc_0): Linear(in_features=1024, out_features=512, bias=True)
          (fc_1): Linear(in_features=512, out_features=512, bias=True)
          (actvn): ReLU(inplace=True)
          (shortcut): Linear(in_features=1024, out_features=512, bias=False)
        )
        (block_1): ResnetBlockFC(
          (fc_0): Linear(in_features=1024, out_features=512, bias=True)
          (fc_1): Linear(in_features=512, out_features=512, bias=True)
          (actvn): ReLU(inplace=True)
          (shortcut): Linear(in_features=1024, out_features=512, bias=False)
        )
        (block_2): ResnetBlockFC(
          (fc_0): Linear(in_features=1024, out_features=512, bias=True)
          (fc_1): Linear(in_features=512, out_features=512, bias=True)
          (actvn): ReLU(inplace=True)
          (shortcut): Linear(in_features=1024, out_features=512, bias=False)
        )
        (block_3): ResnetBlockFC(
          (fc_0): Linear(in_features=1024, out_features=512, bias=True)
          (fc_1): Linear(in_features=512, out_features=512, bias=True)
          (actvn): ReLU(inplace=True)
          (shortcut): Linear(in_features=1024, out_features=512, bias=False)
        )
        (block_4): ResnetBlockFC(
          (fc_0): Linear(in_features=1024, out_features=512, bias=True)
          (fc_1): Linear(in_features=512, out_features=512, bias=True)
          (actvn): ReLU(inplace=True)
          (shortcut): Linear(in_features=1024, out_features=512, bias=False)
        )
        (fc_c): Linear(in_features=512, out_features=512, bias=True)
        (actvn): ReLU()
      )
      (point_seg): PointSeg(
        (feat): PointNetEncoder(
          (stn): STN3d(
            (conv1): Conv1d(6, 64, kernel_size=(1,), stride=(1,))
            (conv2): Conv1d(64, 128, kernel_size=(1,), stride=(1,))
            (conv3): Conv1d(128, 1024, kernel_size=(1,), stride=(1,))
            (fc1): Linear(in_features=1024, out_features=512, bias=True)
            (fc2): Linear(in_features=512, out_features=256, bias=True)
            (fc3): Linear(in_features=256, out_features=9, bias=True)
            (relu): ReLU()
            (bn1): BatchNorm1d(64, eps=1e-05, momentum=0.1, affine=True, track_running_stats=True)
            (bn2): BatchNorm1d(128, eps=1e-05, momentum=0.1, affine=True, track_running_stats=True)
            (bn3): BatchNorm1d(1024, eps=1e-05, momentum=0.1, affine=True, track_running_stats=True)
            (bn4): BatchNorm1d(512, eps=1e-05, momentum=0.1, affine=True, track_running_stats=True)
            (bn5): BatchNorm1d(256, eps=1e-05, momentum=0.1, affine=True, track_running_stats=True)
          )
          (conv1): Conv1d(6, 64, kernel_size=(1,), stride=(1,))
          (conv2): Conv1d(64, 128, kernel_size=(1,), stride=(1,))
          (conv3): Conv1d(128, 1024, kernel_size=(1,), stride=(1,))
          (bn1): BatchNorm1d(64, eps=1e-05, momentum=0.1, affine=True, track_running_stats=True)
          (bn2): BatchNorm1d(128, eps=1e-05, momentum=0.1, affine=True, track_running_stats=True)
          (bn3): BatchNorm1d(1024, eps=1e-05, momentum=0.1, affine=True, track_running_stats=True)
          (fstn): STNkd(
            (conv1): Conv1d(64, 64, kernel_size=(1,), stride=(1,))
            (conv2): Conv1d(64, 128, kernel_size=(1,), stride=(1,))
            (conv3): Conv1d(128, 1024, kernel_size=(1,), stride=(1,))
            (fc1): Linear(in_features=1024, out_features=512, bias=True)
            (fc2): Linear(in_features=512, out_features=256, bias=True)
            (fc3): Linear(in_features=256, out_features=4096, bias=True)
            (relu): ReLU()
            (bn1): BatchNorm1d(64, eps=1e-05, momentum=0.1, affine=True, track_running_stats=True)
            (bn2): BatchNorm1d(128, eps=1e-05, momentum=0.1, affine=True, track_running_stats=True)
            (bn3): BatchNorm1d(1024, eps=1e-05, momentum=0.1, affine=True, track_running_stats=True)
            (bn4): BatchNorm1d(512, eps=1e-05, momentum=0.1, affine=True, track_running_stats=True)
            (bn5): BatchNorm1d(256, eps=1e-05, momentum=0.1, affine=True, track_running_stats=True)
          )
        )
        (conv1): Conv1d(1088, 512, kernel_size=(1,), stride=(1,))
        (conv2): Conv1d(512, 256, kernel_size=(1,), stride=(1,))
        (conv3): Conv1d(256, 128, kernel_size=(1,), stride=(1,))
        (conv4): Conv1d(128, 2, kernel_size=(1,), stride=(1,))
        (bn1): BatchNorm1d(512, eps=1e-05, momentum=0.1, affine=True, track_running_stats=True)
        (bn2): BatchNorm1d(256, eps=1e-05, momentum=0.1, affine=True, track_running_stats=True)
        (bn3): BatchNorm1d(128, eps=1e-05, momentum=0.1, affine=True, track_running_stats=True)
      )
      (mask_loss_func): get_loss()
    )
    (completion): ONet(
      (encoder_latent): Encoder_Latent(
        (fc_pos): Linear(in_features=3, out_features=128, bias=True)
        (fc_c): Linear(in_features=512, out_features=128, bias=True)
        (fc_0): Linear(in_features=1, out_features=128, bias=True)
        (fc_1): Linear(in_features=128, out_features=128, bias=True)
        (fc_2): Linear(in_features=256, out_features=128, bias=True)
        (fc_3): Linear(in_features=256, out_features=128, bias=True)
        (fc_mean): Linear(in_features=128, out_features=32, bias=True)
        (fc_logstd): Linear(in_features=128, out_features=32, bias=True)
      )
      (decoder): DecoderCBatchNorm(
        (fc_z): Linear(in_features=32, out_features=256, bias=True)
        (fc_p): Conv1d(3, 256, kernel_size=(1,), stride=(1,))
        (blocks): ModuleList(
          (0): CResnetBlockConv1d(
            (bn_0): CBatchNorm1d(
              (conv_gamma): Conv1d(512, 256, kernel_size=(1,), stride=(1,))
              (conv_beta): Conv1d(512, 256, kernel_size=(1,), stride=(1,))
              (bn): BatchNorm1d(256, eps=1e-05, momentum=0.1, affine=False, track_running_stats=True)
            )
            (bn_1): CBatchNorm1d(
              (conv_gamma): Conv1d(512, 256, kernel_size=(1,), stride=(1,))
              (conv_beta): Conv1d(512, 256, kernel_size=(1,), stride=(1,))
              (bn): BatchNorm1d(256, eps=1e-05, momentum=0.1, affine=False, track_running_stats=True)
            )
            (fc_0): Conv1d(256, 256, kernel_size=(1,), stride=(1,))
            (fc_1): Conv1d(256, 256, kernel_size=(1,), stride=(1,))
            (actvn): ReLU(inplace=True)
          )
          (1): CResnetBlockConv1d(
            (bn_0): CBatchNorm1d(
              (conv_gamma): Conv1d(512, 256, kernel_size=(1,), stride=(1,))
              (conv_beta): Conv1d(512, 256, kernel_size=(1,), stride=(1,))
              (bn): BatchNorm1d(256, eps=1e-05, momentum=0.1, affine=False, track_running_stats=True)
            )
            (bn_1): CBatchNorm1d(
              (conv_gamma): Conv1d(512, 256, kernel_size=(1,), stride=(1,))
              (conv_beta): Conv1d(512, 256, kernel_size=(1,), stride=(1,))
              (bn): BatchNorm1d(256, eps=1e-05, momentum=0.1, affine=False, track_running_stats=True)
            )
            (fc_0): Conv1d(256, 256, kernel_size=(1,), stride=(1,))
            (fc_1): Conv1d(256, 256, kernel_size=(1,), stride=(1,))
            (actvn): ReLU(inplace=True)
          )
          (2): CResnetBlockConv1d(
            (bn_0): CBatchNorm1d(
              (conv_gamma): Conv1d(512, 256, kernel_size=(1,), stride=(1,))
              (conv_beta): Conv1d(512, 256, kernel_size=(1,), stride=(1,))
              (bn): BatchNorm1d(256, eps=1e-05, momentum=0.1, affine=False, track_running_stats=True)
            )
            (bn_1): CBatchNorm1d(
              (conv_gamma): Conv1d(512, 256, kernel_size=(1,), stride=(1,))
              (conv_beta): Conv1d(512, 256, kernel_size=(1,), stride=(1,))
              (bn): BatchNorm1d(256, eps=1e-05, momentum=0.1, affine=False, track_running_stats=True)
            )
            (fc_0): Conv1d(256, 256, kernel_size=(1,), stride=(1,))
            (fc_1): Conv1d(256, 256, kernel_size=(1,), stride=(1,))
            (actvn): ReLU(inplace=True)
          )
          (3): CResnetBlockConv1d(
            (bn_0): CBatchNorm1d(
              (conv_gamma): Conv1d(512, 256, kernel_size=(1,), stride=(1,))
              (conv_beta): Conv1d(512, 256, kernel_size=(1,), stride=(1,))
              (bn): BatchNorm1d(256, eps=1e-05, momentum=0.1, affine=False, track_running_stats=True)
            )
            (bn_1): CBatchNorm1d(
              (conv_gamma): Conv1d(512, 256, kernel_size=(1,), stride=(1,))
              (conv_beta): Conv1d(512, 256, kernel_size=(1,), stride=(1,))
              (bn): BatchNorm1d(256, eps=1e-05, momentum=0.1, affine=False, track_running_stats=True)
            )
            (fc_0): Conv1d(256, 256, kernel_size=(1,), stride=(1,))
            (fc_1): Conv1d(256, 256, kernel_size=(1,), stride=(1,))
            (actvn): ReLU(inplace=True)
          )
          (4): CResnetBlockConv1d(
            (bn_0): CBatchNorm1d(
              (conv_gamma): Conv1d(512, 256, kernel_size=(1,), stride=(1,))
              (conv_beta): Conv1d(512, 256, kernel_size=(1,), stride=(1,))
              (bn): BatchNorm1d(256, eps=1e-05, momentum=0.1, affine=False, track_running_stats=True)
            )
            (bn_1): CBatchNorm1d(
              (conv_gamma): Conv1d(512, 256, kernel_size=(1,), stride=(1,))
              (conv_beta): Conv1d(512, 256, kernel_size=(1,), stride=(1,))
              (bn): BatchNorm1d(256, eps=1e-05, momentum=0.1, affine=False, track_running_stats=True)
            )
            (fc_0): Conv1d(256, 256, kernel_size=(1,), stride=(1,))
            (fc_1): Conv1d(256, 256, kernel_size=(1,), stride=(1,))
            (actvn): ReLU(inplace=True)
          )
        )
        (bn): CBatchNorm1d(
          (conv_gamma): Conv1d(512, 256, kernel_size=(1,), stride=(1,))
          (conv_beta): Conv1d(512, 256, kernel_size=(1,), stride=(1,))
          (bn): BatchNorm1d(256, eps=1e-05, momentum=0.1, affine=False, track_running_stats=True)
        )
        (fc_out): Conv1d(256, 1, kernel_size=(1,), stride=(1,))
        (actvn): ReLU(inplace=True)
      )
    )
  )
)
2023-06-05 20:24:15,262 - demo - INFO - Begin to train from scratch.
2023-06-05 20:24:15,262 - demo - INFO - Loading data.
